app/src/main/tflite/empatica-custom-v10/trained.tflite (tflite, 318880 bytes, 6 tensors)

y_pred/bias f4 [2]
0	0x3be9d839	0.0071363715
1	0xbbe9d837	-0.0071363705

dense_1/bias f4 [12]
0	0x3c2a4eed	0.010394794
1	0xbbc82aee	-0.0061086332
2	0x3b97b8d5	0.004630188
3	0xbb5ca35f	-0.0033666713
4	0xbc0ae4d3	-0.0084774075
5	0xba6f6158	-0.0009131632
6	0xbb7613a5	-0.003754833
7	0x3c22b42a	0.00993065
8	0x3c2c62d6	0.010521611
9	0x3bcc3d35	0.0062328824
10	0xbbf90abb	-0.007600156
11	0x3c68b9e8	0.01420448

dense/bias f4 [10]
0	0x399bd5dc	0.00029723241
1	0x3b5d0ebd	0.0033730709
2	0xbbc2cc5c	-0.0059447717
3	0xbbbfa673	-0.0058486997
4	0x00000000	0.0
5	0xbaa2199d	-0.0012367252
6	0x3ad8b5c1	0.0016533659
7	0x3b859a15	0.004077206
8	0xbbfc355c	-0.0076967906
9	0x3c8ceb10	0.01720193

sequential/dense/MatMul f4 [10, 7913]
0	0xbcb23834	-0.021755315
1	0xbcc0ed85	-0.023550758
2	0xbc838fe0	-0.016059816
3	0xbca274c1	-0.019831063
4	0x3a89839e	0.0010491495
5	0xbcbe0c77	-0.023199303
6	0x3c52a9c4	0.012857858
7	0xbb3bc970	-0.0028654002
8	0x3c9b6c67	0.018972589
9	0x3d4982ba	0.049196936
10	0x3cd53d73	0.026030278
11	0x3c6ec733	0.01457386
12	0x3a5d2e89	0.0008437415
13	0x3d05ec45	0.032696027
14	0x3b86df13	0.004115948
15	0x3cbd5994	0.023114003
16	0x3b160ae0	0.0022894666
17	0x3ce4d5c6	0.027933966
18	0x3ce7bb29	0.028287487
19	0x3c966bfc	0.018362038
20	0x3cc971c8	0.024590388
21	0x3b05d538	0.0020421278
22	0xbc5dd680	-0.01353991
23	0x3cbd9bf4	0.023145653
24	0xbc97e78a	-0.018543024
25	0x3ba83218	0.0051329248
26	0x3cc3c832	0.023899172
27	0x3cbb8d2c	0.022894464
28	0x3c375eb4	0.011192013
29	0xbb4f9990	-0.0031677224
30	0x3cd9e620	0.02659899
31	0xbca38055	-0.019958654
32	0x3cca90c0	0.024727225
33	0xbc8c2f76	-0.017112475
34	0xbc0f349a	-0.0087405685
35	0x3c880478	0.016603693
36	0x3c97cd96	0.018530648
37	0xbc0a5c2a	-0.008444825
38	0xbc8f074a	-0.01745953
39	0xbb3caa10	-0.0028787889
40	0x3cc0154c	0.023447655
41	0xbc71b2c7	-0.0147520965
42	0xbcc980ba	-0.024597514
43	0x3abc8350	0.0014382396
44	0x3cd01be2	0.02540392
45	0x3c8c8b4a	0.017156262
46	0xbca2a074	-0.0198519
47	0xbcc8d825	-0.024517128
48	0xbc80d5b6	-0.015726905
49	0xbc4268e4	-0.011865828
50	0xbc81f57e	-0.01586413
51	0x3c0e0a68	0.008669473
52	0xbccab9f2	-0.024746869
53	0xbca15bec	-0.019697152
54	0x3c358be0	0.011080712
55	0x3c797da8	0.015227713
56	0xbc2cf25c	-0.01055583
57	0x3c1b2a84	0.009470586
58	0xbc1c8fbe	-0.009555755
59	0xbcb8ac03	-0.02254296
60	0xbc8cd4bc	-0.017191283
61	0x3cd520a2	0.026016537
62	0xbcc56607	-0.024096502
63	0xbb9c2018	-0.004764568
64	0x3baacb18	0.005212199
65	0xbccf19bb	-0.025280824
66	0x3cc3863c	0.023867719
67	0xba0e8c40	-0.0005437769
68	0x3c31cc19	0.010851883
69	0x3d180973	0.037118386
70	0x3b2cd4d8	0.0026371982
71	0x3cce5dec	0.02519127
72	0x3b095576	0.002095548
73	0x3c5322d3	0.012886721
74	0x3d25217b	0.040315133
75	0x3cc772e2	0.024346773
76	0x3cb7748f	0.022394447
77	0xbd1da636	-0.03848859
78	0xbcbc045f	-0.022951303
79	0xbcb3c73b	-0.021945586
80	0x3a6e83dd	0.00090986287
81	0xbccc0d11	-0.024908574
82	0x3cd9bb52	0.02657858
83	0x3aabd380	0.0013109297
84	0x3c922ad8	0.017842695
85	0x3cb2c178	0.021820769
86	0x3c666970	0.014063224
87	0x3cc0eba6	0.023549866
88	0xbcb671f2	-0.02227113
89	0x3c119a9c	0.008886959
90	0x3c045924	0.008077893
91	0x3c8f261a	0.017474223
92	0xbbc8186c	-0.006106427
93	0x3baa76c8	0.005202148
94	0x3c52a0e4	0.012855742
95	0x3c8690ec	0.016426526
96	0xbc4948dd	-0.012285438
97	0xbc36e378	-0.011162631
98	0x3b903350	0.004400648
99	0xbccfdeaf	-0.025374738
100	0x3c5b6d40	0.013392746
101	0x3cc9bc16	0.02462582
102	0x3caf5ade	0.021405634
103	0xbc554cc2	-0.013018789
104	0xbcb9e1a7	-0.022690607
105	0xbcb30bac	-0.021856152
106	0x3cae4c5e	0.02127665
107	0x39f69e00	0.00047038496
108	0x3b74c1e0	0.0037347004
109	0x3c8696d0	0.016429335
110	0x3bbdcf98	0.0057925694
111	0xbc8df6b4	-0.017329551
112	0x3b4d0a30	0.003128659
113	0x3b73e958	0.003721794
114	0xbbad0308	-0.0052799024
115	0x3cb8022a	0.02246197
116	0xbb75bfb0	-0.0037498288
117	0xbcd69d81	-0.02619815
118	0x3a584320	0.00082497485
119	0x3ccd4122	0.025055472
120	0x3b4b6b30	0.003103923
121	0xbc79f4b9	-0.0152561
122	0xbbecc1d8	-0.0072252564
123	0x3ba8e4f8	0.0051542483
124	0xbc648267	-0.013947106
125	0x3c826282	0.015916113
126	0xbbedb00c	-0.0072536524
127	0xbcc362f1	-0.02385089
128	0xbc4fa0ab	-0.012672584
129	0xbca29746	-0.019847523
130	0xbbef2ba4	-0.0072989035
131	0xbc5e410d	-0.013565314
132	0x3c561ffc	0.013069149
133	0x3ccc501b	0.024940541
134	0x3cfdacaf	0.030966131
135	0x3c034865	0.008012866
136	0x3c5fcfdc	0.013660397
137	0xbc1be03b	-0.00951391
138	0x3b1dd18c	0.0024081198
139	0x3c25336b	0.01008306
140	0x3d4188e6	0.047249697
141	0x3c5268db	0.012842382
142	0x3c020a36	0.007937005
143	0x3ca35d94	0.019942082
144	0x3cb149bc	0.021641605
145	0x3c091c9a	0.008368636
146	0x3b1379b8	0.002250297
147	0xbc641317	-0.013920567
148	0xbba14c88	-0.0049224533
149	0x3c07b594	0.008283038
150	0x3cce480a	0.025180835
151	0xbc5296ec	-0.012853365
152	0x3c83846e	0.016054358
153	0xbcb2a70d	-0.021808172
154	0x3ca437e8	0.02004619
155	0xbcbf4baf	-0.023351518
156	0xbb0d01d8	-0.0021515992
157	0x3c67e684	0.01415408
158	0x3c82af7a	0.015952814
159	0x3c8f5a62	0.017499153
160	0x3c9194c4	0.017771132
161	0x3c9c7400	0.019098282
162	0x3c46fca4	0.012145195
163	0x3cc7ac3a	0.024374116
164	0x3b660f98	0.003510451
165	0xbc709e61	-0.014686198
166	0x3c90e2a0	0.017686188
167	0xbcb6e784	-0.022327192
168	0xbb02a838	-0.0019936692
169	0xbc9d59c2	-0.019207839
170	0x3bf20be0	0.0073866695
171	0x3c6f2fa8	0.0145987645
172	0xbc2836e6	-0.010266995
173	0x3c6d05bc	0.014466699
174	0x3c0e57a0	0.008687884
175	0xbc7ba933	-0.015360164
176	0xbb901598	-0.0043971054
177	0x3c436634	0.011926223
178	0x3c9af236	0.018914323
179	0x3c92fe3a	0.01794349
180	0x3cb327be	0.021869536
181	0x3c949eda	0.018142153
182	0xbcaa848f	-0.020815162
183	0xbba7cea0	-0.005121067
184	0x3b7ac760	0.003826581
185	0x3c08b5c4	0.008344118
186	0x3c620c64	0.0137968995
187	0xbad6edb0	-0.0016397741
188	0x39c39580	0.00037304685
189	0x3bb532c0	0.0055297315
190	0xbc10af6e	-0.008830888
191	0xbc7ae423	-0.015313181
192	0x3bb403b8	0.0054936074
193	0x3cb79210	0.022408515
194	0x3c2a213c	0.0103839
195	0xbb18e390	-0.0023328997
196	0x3a6494a0	0.00087196566
197	0x3cb37832	0.0219079
198	0x3cebc214	0.028779067
199	0x3d141427	0.03615203
200	0xbc4f6d18	-0.012660287
201	0x3bc2e50c	0.0059477147
202	0x3a4ecdbc	0.0007888933
203	0x3c49ba7e	0.01231253
204	0x3d14c728	0.036322743
205	0x3c4b3ef0	0.012405142
206	0xbd02bd88	-0.031919032
207	0xbb32fb90	-0.0027310587
208	0xbcbe9e6b	-0.023268899
209	0xbd38a542	-0.045079477
210	0xbd25e381	-0.040500168
211	0xbc23e6fe	-0.010003803
212	0xbc11ee5d	-0.008906928
213	0x3c0deaf9	0.008661979
214	0xbd217353	-0.039416622
215	0x3c034aea	0.008013466
216	0xbc62561c	-0.013814475
217	0x3bf3541c	0.007425798
218	0xbbfa2c78	-0.0076346956
219	0x3c2b4960	0.010454506
220	0x3b98dd30	0.0046650395
221	0xbadf1f10	-0.0017022807
222	0xbb7d69b0	-0.003866773
223	0x3c3a6ab8	0.011377983
224	0xbc57dfdd	-0.013175932
225	0xbc97bc3a	-0.01852237
226	0xbb500f08	-0.003174724
227	0x3c165ec4	0.009177867
228	0xbbfdb524	-0.007742541
229	0xbcb5f914	-0.022213496
230	0x3aa8bf20	0.0012874343
231	0xbc329b9e	-0.01090136
232	0x3c757c60	0.014983267
233	0xbc9fcae4	-0.019505925
234	0x3b789af0	0.0037934147
235	0x3c859504	0.016306408
236	0xbc35c410	-0.011094108
237	0x3c95825a	0.018250633
238	0xbbac57fc	-0.005259512
239	0xbcd65a71	-0.026166173
240	0x3cabd964	0.020977683
241	0x3c3b6720	0.011438161
242	0x3c565f98	0.013084315
243	0xbb8b3b20	-0.0042489916
244	0x3c6b59ac	0.014364641
245	0x3cbba8a6	0.022907566
246	0x3cca1f78	0.024673209
247	0x3c0767f8	0.008264534
248	0x3cc3ddf0	0.023909539
249	0x3c2fe420	0.010735542
250	0xbcce29f9	-0.025166498
251	0x3c618d10	0.013766542
252	0x3cb26690	0.021777421
253	0xbc2e431c	-0.010636117
254	0xbc6fc669	-0.014634707
255	0xbc21a8a8	-0.009866871

sequential/dense_1/MatMul f4 [12, 10]
0	0xbe92ebf0	-0.2869563
1	0x3ec630dc	0.38709152
2	0xbe91ceaa	-0.28477985
3	0x3ec8c5f8	0.39213538
4	0x3eef0120	0.46680546
5	0xbdfbc6d6	-0.12293784
6	0xbe875667	-0.26433107
7	0xbe90c996	-0.28278798
8	0x3edd4047	0.43213102
9	0x3e5c67fc	0.21524042
10	0xbe9db0ea	-0.30799037
11	0xbdb6a41d	-0.08918021
12	0xbed07f66	-0.40722197
13	0xbee73e83	-0.4516488
14	0xbebbbb1c	-0.3666619
15	0x3eb7047a	0.35745603
16	0x3ec15773	0.3776203
17	0x3efd8ce7	0.49521562
18	0x3eabb875	0.33539167
19	0xbdd1c5b3	-0.10242786
20	0xbec7adf9	-0.38999918
21	0x3d0d46cf	0.034491356
22	0x3d775ca2	0.060391076
23	0x3e72a76b	0.23696677
24	0xbe9ba162	-0.30396563
25	0x3e5ca868	0.21548617
26	0xbcbfbf1c	-0.023406558
27	0x3e5dc148	0.21655762
28	0xbebb4804	-0.3657838
29	0xbe8c8c64	-0.2745086
30	0xbea6fa59	-0.32612875
31	0x3ecfcd67	0.40586397
32	0xbe8fe425	-0.28103748
33	0x3ec5608e	0.38550228
34	0x3d365f00	0.044524193
35	0x3ea22707	0.316704
36	0xbde73c15	-0.112907566
37	0x3ede96b9	0.43474367
38	0xbe2f1f63	-0.17101817
39	0xbec3a304	-0.3821031
40	0x3d902aeb	0.07039436
41	0xbe221c9f	-0.1583123
42	0x3ce8b857	0.028408213
43	0x3ed4f8f4	0.41596186
44	0xbc0884c0	-0.008332431
45	0xbe3a07f5	-0.18167098
46	0x3e6658a1	0.22494747
47	0xbde7215d	-0.112856604
48	0xbe1dc3c0	-0.15406704
49	0xbe70853c	-0.23488325
50	0x3ea30807	0.31842062
51	0x3ef44ccd	0.47714844
52	0x3d9fae7e	0.077969536
53	0x3def57fe	0.11686705
54	0x3e6b7ebc	0.22997564
55	0x3c98dc6a	0.01865979
56	0xbee10cb5	-0.43955007
57	0x3ec6dbe9	0.38839653
58	0x3db06cd7	0.086145096
59	0x3e3c4c00	0.18388367
60	0x3ecc1d60	0.3986616
61	0x3ea4c795	0.3218352
62	0x3db7e31d	0.08978865
63	0x3ea40c00	0.32040405
64	0x3edce57e	0.4314384
65	0x3d6e677f	0.05820417
66	0xbef8597f	-0.4850578
67	0xbeecf807	-0.4628298
68	0xbe965892	-0.2936445
69	0xbefcd6e4	-0.493827
70	0xbe97eb44	-0.2967168
71	0x3df64807	0.12025457
72	0x3e7191ac	0.23590726
73	0xbd856b8c	-0.065146536
74	0xbdc89fb8	-0.09796089
75	0xbe28a957	-0.16470848
76	0xbe797cb7	-0.24363981
77	0xbec6bd6c	-0.38816392
78	0x3ec27cad	0.37985745
79	0x3efffd69	0.49998024
80	0xbea1e23a	-0.3161791
81	0x3e341a98	0.1758827
82	0xbe882911	-0.2659383
83	0xbefbd882	-0.4918862
84	0xbe0eec00	-0.13957214
85	0x3e96d1e1	0.29457
86	0xbedde9a9	-0.4334233
87	0x3ece6d74	0.4031788
88	0x3ce54c40	0.02799046
89	0x3e9d7a30	0.30757284
90	0xbe1bb7ba	-0.15206805
91	0xbe8e32d0	-0.27773142
92	0xbebac486	-0.3647806
93	0xbeb0252c	-0.3440336
94	0xbda6a7b0	-0.081374526
95	0x3eb0cd5f	0.34531686
96	0xbe1b89c2	-0.15189269
97	0xbec7fc43	-0.39059648
98	0xbf04e2df	-0.5190868
99	0x3ef5ff3e	0.48046297
100	0xbb4993d1	-0.0030758271
101	0x3e131d53	0.14366655
102	0xbed6cf16	-0.4195487
103	0x3e9c6a10	0.3054967
104	0xbc82ace0	-0.015951574
105	0x3dbe9a3f	0.09306764
106	0x3ebb473f	0.36577794
107	0x3f02a8da	0.510389
108	0xbe72d592	-0.23714283
109	0x3eb0d53f	0.34537694
110	0x3d757d95	0.059934217
111	0xbeb0c7ec	-0.34527528
112	0x3db696d9	0.08915491
113	0xbdc44ddc	-0.09585163
114	0x3e986276	0.2976262
115	0xbe6c8a60	-0.23099661
116	0x3ef24a08	0.47322106
117	0xbef7fb6a	-0.48434
118	0x3ea1d912	0.31610924
119	0x3e384cd9	0.17998065

sequential/y_pred/MatMul f4 [2, 12]
0	0xbe7cf08d	-0.24701138
1	0xbf29a0c4	-0.66260934
2	0xbd58df57	-0.05294737
3	0xbf132acf	-0.57487196
4	0x3d356831	0.044288818
5	0xbeefb5c2	-0.46818358
6	0x3e94dc22	0.29074198
7	0x3ee232e6	0.44179457
8	0xbcfb8586	-0.030703317
9	0x3e7a6c0d	0.2445528
10	0xbe14796d	-0.14499445
11	0x3e95b5ce	0.29240268
12	0x3edd51c1	0.43226436
13	0xbf11299e	-0.5670413
14	0xbd84f7b0	-0.06492555
15	0x3f089667	0.53354496
16	0x3f051437	0.5198397
17	0x3ec390fa	0.38196546
18	0x3e9adc94	0.30246413
19	0xbd5f5c96	-0.054531656
20	0x3e3f0f0a	0.1865808
21	0xbc92fcb1	-0.017942758
22	0x3e3f08b4	0.18655664
23	0xbdcce524	-0.100046426
